…
/home/ebocini/repos/GGN-update/eeg_util.py:205: UserWarning: Casting complex values to real discards the imaginary part (Triggered internally at ../aten/src/ATen/native/Copy.cpp:308.)
  xs = torch.Tensor(xs)
num_batch  7
num_batch  7
tensorboard path: ./tfboard/seizure/11_17_18_20
WARNING: creating adjecency matrix using ER! Using 16 channels, change this for the actual run!!!!
N: 16
adj_fix torch.Size([16, 16])
[DLOG]  Predictor in channel: 48
[DLOG]  -------- ecoder: -----------
 RNNEncoder(
  (rnn): GRU(126, 256, num_layers=2, batch_first=True, bidirectional=True)
)
[DLOG]  -------- decoder: -----------
 SpatialDecoder(
  (gnn_decoder): GNNDecoder(
    (gnns): ModuleList(
      (0): GraphConv(
        (lin): Linear(in_features=512, out_features=32, bias=True)
        (dropout): Dropout(p=0.3, inplace=False)
      )
      (1): GraphConv(
        (lin): Linear(in_features=32, out_features=16, bias=True)
        (dropout): Dropout(p=0.3, inplace=False)
      )
    )
    (g_pooling): GateGraphPooling()
  )
  (cnn_decoder): CNN2d(
    (b1): Sequential(
      (0): Conv2d(512, 256, kernel_size=(1, 1), stride=(1, 1))
      (1): ReLU()
      (2): Conv2d(256, 256, kernel_size=(3, 3), stride=(1, 1))
      (3): ReLU()
      (4): BatchNorm2d(256, eps=1e-05, momentum=0.1, affine=True, track_running_stats=True)
      (5): Dropout(p=0.3, inplace=False)
    )
    (bx): ModuleList(
      (0): Sequential(
        (0): Conv2d(256, 512, kernel_size=(1, 1), stride=(1, 1))
        (1): ReLU()
        (2): Conv2d(512, 512, kernel_size=(3, 3), stride=(2, 2))
        (3): ReLU()
        (4): BatchNorm2d(512, eps=1e-05, momentum=0.1, affine=True, track_running_stats=True)
        (5): Dropout(p=0.3, inplace=False)
      )
    )
    (bn): Sequential(
      (0): Conv2d(512, 256, kernel_size=(1, 1), stride=(1, 1))
      (1): ReLU()
      (2): Conv2d(256, 256, kernel_size=(3, 3), stride=(2, 2))
      (3): ReLU()
      (4): BatchNorm2d(256, eps=1e-05, momentum=0.1, affine=True, track_running_stats=True)
      (5): Dropout(p=0.3, inplace=False)
    )
  )
)
args_cuda: True
rnn_train RNNBlock to cuda!
weights: tensor([0.6542, 0.6565, 0.6894], device='cuda:0')
epoch: 0
train_loss          1.105366
train_acc     tensor(0.3245)
val_loss            1.105181
val_acc       tensor(0.3472)
dtype: object
update best model, epoch:  0
train_loss          1.105366
…
